…
    "exp_name":	"sac_discrete",
    "gamma":	0.99,
    "logger_kwargs":	{
        "exp_name":	"sac_discrete",
        "output_dir":	"/home/zp/deeplearning/spinningup_project/data/sac_discrete/sac_discrete_s0"
    },
    "max_ep_len":	200,
    "num_test_episodes":	10,
    "p":	"Parameter containing:\ntensor([ 0.0513, -0.0575], device='cuda:0')",
    "pi_lr":	0.001,
    "q_lr":	0.001,
    "replay_size":	5000,
    "self":	{
        "<spinup.alogos.sac_discrete.sac_discrete.sac_discrete object at 0x7fe228b9f610>":	{
            "ac":	{
                "MLPActorCritic(\n  (pi): MLPActor(\n    (net): Sequential(\n      (0): Linear(in_features=4, out_features=256, bias=True)\n      (1): ReLU()\n      (2): Linear(in_features=256, out_features=256, bias=True)\n      (3): ReLU()\n      (4): Linear(in_features=256, out_features=2, bias=True)\n      (5): Identity()\n    )\n  )\n  (q1): MLPQFunction(\n    (q): Sequential(\n      (0): Linear(in_features=4, out_features=256, bias=True)\n      (1): ReLU()\n      (2): Linear(in_features=256, out_features=256, bias=True)\n      (3): ReLU()\n      (4): Linear(in_features=256, out_features=2, bias=True)\n      (5): Identity()\n    )\n  )\n  (q2): MLPQFunction(\n    (q): Sequential(\n      (0): Linear(in_features=4, out_features=256, bias=True)\n      (1): ReLU()\n      (2): Linear(in_features=256, out_features=256, bias=True)\n      (3): ReLU()\n      (4): Linear(in_features=256, out_features=2, bias=True)\n      (5): Identity()\n    )\n  )\n)":	{
                    "_backward_hooks":	{},
                    "_buffers":	{},
                    "_forward_hooks":	{},
                    "_forward_pre_hooks":	{},
                    "_is_full_backward_hook":	null,
                    "_load_state_dict_pre_hooks":	{},
                    "_modules":	{
                        "pi":	{
                            "MLPActor(\n  (net): Sequential(\n    (0): Linear(in_features=4, out_features=256, bias=True)\n    (1): ReLU()\n    (2): Linear(in_features=256, out_features=256, bias=True)\n    (3): ReLU()\n    (4): Linear(in_features=256, out_features=2, bias=True)\n    (5): Identity()\n  )\n)":	{
                                "_backward_hooks":	{},
                                "_buffers":	{},
                                "_forward_hooks":	{},
                                "_forward_pre_hooks":	{},
                                "_is_full_backward_hook":	null,
                                "_load_state_dict_pre_hooks":	{},
                                "_modules":	{
                                    "net":	{
                                        "Sequential(\n  (0): Linear(in_features=4, out_features=256, bias=True)\n  (1): ReLU()\n  (2): Linear(in_features=256, out_features=256, bias=True)\n  (3): ReLU()\n  (4): Linear(in_features=256, out_features=2, bias=True)\n  (5): Identity()\n)":	{
                                            "_backward_hooks":	{},
                                            "_buffers":	{},
                                            "_forward_hooks":	{},
                                            "_forward_pre_hooks":	{},
                                            "_is_full_backward_hook":	null,
…
                                            "training":	true
                                        }
                                    }
                                },
                                "_non_persistent_buffers_set":	"set()",
                                "_parameters":	{},
                                "_state_dict_hooks":	{},
                                "act_dim":	2,
                                "obs_dim":	4,
                                "training":	true
                            }
                        },
                        "q1":	{
                            "MLPQFunction(\n  (q): Sequential(\n    (0): Linear(in_features=4, out_features=256, bias=True)\n    (1): ReLU()\n    (2): Linear(in_features=256, out_features=256, bias=True)\n    (3): ReLU()\n    (4): Linear(in_features=256, out_features=2, bias=True)\n    (5): Identity()\n  )\n)":	{
                                "_backward_hooks":	{},
                                "_buffers":	{},
                                "_forward_hooks":	{},
                                "_forward_pre_hooks":	{},
                                "_is_full_backward_hook":	null,
                                "_load_state_dict_pre_hooks":	{},
                                "_modules":	{
                                    "q":	{
                                        "Sequential(\n  (0): Linear(in_features=4, out_features=256, bias=True)\n  (1): ReLU()\n  (2): Linear(in_features=256, out_features=256, bias=True)\n  (3): ReLU()\n  (4): Linear(in_features=256, out_features=2, bias=True)\n  (5): Identity()\n)":	{
                                            "_backward_hooks":	{},
                                            "_buffers":	{},
                                            "_forward_hooks":	{},
                                            "_forward_pre_hooks":	{},
                                            "_is_full_backward_hook":	null,
…
