…
        ]
    },
    "actor_critic":	"MLPActorCritic",
    "clip_ratio":	0.2,
    "device":	"cuda:0",
    "env_fn":	"<function <lambda> at 0x7fd56e1ff050>",
    "exp_name":	"ppo_pendulum",
    "gamma":	0.99,
    "lam":	0.97,
    "logger_kwargs":	{
        "exp_name":	"ppo_pendulum",
        "output_dir":	"/home/zp/deeplearning/spinningup_project/data/ppo_pendulum/ppo_pendulum_s0"
    },
    "pi_lr":	0.0003,
    "self":	{
        "<spinup.alogos.ppo.ppo.ppo object at 0x7fd559eb9fd0>":	{
            "ac":	{
                "MLPActorCritic(\n  (pi): MLPGaussianActor(\n    (mu_net): Sequential(\n      (0): Linear(in_features=3, out_features=64, bias=True)\n      (1): Tanh()\n      (2): Linear(in_features=64, out_features=64, bias=True)\n      (3): Tanh()\n      (4): Linear(in_features=64, out_features=1, bias=True)\n      (5): Identity()\n    )\n  )\n  (v): MLPCritic(\n    (v_net): Sequential(\n      (0): Linear(in_features=3, out_features=64, bias=True)\n      (1): Tanh()\n      (2): Linear(in_features=64, out_features=64, bias=True)\n      (3): Tanh()\n      (4): Linear(in_features=64, out_features=1, bias=True)\n      (5): Identity()\n    )\n  )\n)":	{
                    "_backward_hooks":	{},
                    "_buffers":	{},
                    "_forward_hooks":	{},
                    "_forward_pre_hooks":	{},
                    "_is_full_backward_hook":	null,
                    "_load_state_dict_pre_hooks":	{},
                    "_modules":	{
                        "pi":	{
                            "MLPGaussianActor(\n  (mu_net): Sequential(\n    (0): Linear(in_features=3, out_features=64, bias=True)\n    (1): Tanh()\n    (2): Linear(in_features=64, out_features=64, bias=True)\n    (3): Tanh()\n    (4): Linear(in_features=64, out_features=1, bias=True)\n    (5): Identity()\n  )\n)":	{
                                "_backward_hooks":	{},
                                "_buffers":	{},
                                "_forward_hooks":	{},
                                "_forward_pre_hooks":	{},
                                "_is_full_backward_hook":	null,
                                "_load_state_dict_pre_hooks":	{},
                                "_modules":	{
                                    "mu_net":	{
                                        "Sequential(\n  (0): Linear(in_features=3, out_features=64, bias=True)\n  (1): Tanh()\n  (2): Linear(in_features=64, out_features=64, bias=True)\n  (3): Tanh()\n  (4): Linear(in_features=64, out_features=1, bias=True)\n  (5): Identity()\n)":	{
                                            "_backward_hooks":	{},
                                            "_buffers":	{},
                                            "_forward_hooks":	{},
                                            "_forward_pre_hooks":	{},
                                            "_is_full_backward_hook":	null,
…
                                    }
                                },
                                "_non_persistent_buffers_set":	"set()",
                                "_parameters":	{
                                    "log_std":	"Parameter containing:\ntensor([-0.5000], device='cuda:0', requires_grad=True)"
                                },
                                "_state_dict_hooks":	{},
                                "training":	true
                            }
                        },
                        "v":	{
                            "MLPCritic(\n  (v_net): Sequential(\n    (0): Linear(in_features=3, out_features=64, bias=True)\n    (1): Tanh()\n    (2): Linear(in_features=64, out_features=64, bias=True)\n    (3): Tanh()\n    (4): Linear(in_features=64, out_features=1, bias=True)\n    (5): Identity()\n  )\n)":	{
                                "_backward_hooks":	{},
                                "_buffers":	{},
                                "_forward_hooks":	{},
                                "_forward_pre_hooks":	{},
                                "_is_full_backward_hook":	null,
                                "_load_state_dict_pre_hooks":	{},
                                "_modules":	{
                                    "v_net":	{
                                        "Sequential(\n  (0): Linear(in_features=3, out_features=64, bias=True)\n  (1): Tanh()\n  (2): Linear(in_features=64, out_features=64, bias=True)\n  (3): Tanh()\n  (4): Linear(in_features=64, out_features=1, bias=True)\n  (5): Identity()\n)":	{
                                            "_backward_hooks":	{},
                                            "_buffers":	{},
                                            "_forward_hooks":	{},
                                            "_forward_pre_hooks":	{},
                                            "_is_full_backward_hook":	null,
…
