…
    "exp_name":	"sac_hopper",
    "gamma":	0.99,
    "logger_kwargs":	{
        "exp_name":	"sac_hopper",
        "output_dir":	"/home/cxliu/deeplearning_zp/spinningup_project/data/sac_hopper/sac_hopper_s0"
    },
    "max_ep_len":	1000,
    "num_test_episodes":	10,
    "p":	"Parameter containing:\ntensor([0.0242], device='cuda:0')",
    "pi_lr":	0.001,
    "q_lr":	0.001,
    "replay_size":	1000000,
    "self":	{
        "<spinup.alogos.sac.sac.sac object at 0x7fe2a923cb50>":	{
            "ac":	{
                "MLPActorCritic(\n  (pi): SquashedGaussianMLPActor(\n    (net): Sequential(\n      (0): Linear(in_features=11, out_features=256, bias=True)\n      (1): ReLU()\n      (2): Linear(in_features=256, out_features=256, bias=True)\n      (3): ReLU()\n    )\n    (mu_layer): Linear(in_features=256, out_features=3, bias=True)\n    (log_std_layer): Linear(in_features=256, out_features=3, bias=True)\n  )\n  (q1): MLPQFunction(\n    (q): Sequential(\n      (0): Linear(in_features=14, out_features=256, bias=True)\n      (1): ReLU()\n      (2): Linear(in_features=256, out_features=256, bias=True)\n      (3): ReLU()\n      (4): Linear(in_features=256, out_features=1, bias=True)\n      (5): Identity()\n    )\n  )\n  (q2): MLPQFunction(\n    (q): Sequential(\n      (0): Linear(in_features=14, out_features=256, bias=True)\n      (1): ReLU()\n      (2): Linear(in_features=256, out_features=256, bias=True)\n      (3): ReLU()\n      (4): Linear(in_features=256, out_features=1, bias=True)\n      (5): Identity()\n    )\n  )\n)":	{
                    "_backward_hooks":	{},
                    "_buffers":	{},
                    "_forward_hooks":	{},
                    "_forward_pre_hooks":	{},
                    "_load_state_dict_pre_hooks":	{},
                    "_modules":	{
                        "pi":	{
                            "SquashedGaussianMLPActor(\n  (net): Sequential(\n    (0): Linear(in_features=11, out_features=256, bias=True)\n    (1): ReLU()\n    (2): Linear(in_features=256, out_features=256, bias=True)\n    (3): ReLU()\n  )\n  (mu_layer): Linear(in_features=256, out_features=3, bias=True)\n  (log_std_layer): Linear(in_features=256, out_features=3, bias=True)\n)":	{
                                "_backward_hooks":	{},
                                "_buffers":	{},
                                "_forward_hooks":	{},
                                "_forward_pre_hooks":	{},
                                "_load_state_dict_pre_hooks":	{},
                                "_modules":	{
                                    "log_std_layer":	{
…
                                            "training":	true
                                        }
                                    }
                                },
                                "_non_persistent_buffers_set":	"set()",
                                "_parameters":	{},
                                "_state_dict_hooks":	{},
                                "act_limit":	"1.0",
                                "training":	true
                            }
                        },
                        "q1":	{
                            "MLPQFunction(\n  (q): Sequential(\n    (0): Linear(in_features=14, out_features=256, bias=True)\n    (1): ReLU()\n    (2): Linear(in_features=256, out_features=256, bias=True)\n    (3): ReLU()\n    (4): Linear(in_features=256, out_features=1, bias=True)\n    (5): Identity()\n  )\n)":	{
                                "_backward_hooks":	{},
                                "_buffers":	{},
                                "_forward_hooks":	{},
                                "_forward_pre_hooks":	{},
                                "_load_state_dict_pre_hooks":	{},
                                "_modules":	{
                                    "q":	{
                                        "Sequential(\n  (0): Linear(in_features=14, out_features=256, bias=True)\n  (1): ReLU()\n  (2): Linear(in_features=256, out_features=256, bias=True)\n  (3): ReLU()\n  (4): Linear(in_features=256, out_features=1, bias=True)\n  (5): Identity()\n)":	{
                                            "_backward_hooks":	{},
                                            "_buffers":	{},
                                            "_forward_hooks":	{},
                                            "_forward_pre_hooks":	{},
                                            "_load_state_dict_pre_hooks":	{},
…
