…
    "env_fn":	"<function <lambda> at 0x7f64d40a2290>",
    "exp_name":	"ddpg",
    "gamma":	0.99,
    "logger_kwargs":	{
        "exp_name":	"ddpg",
        "output_dir":	"/home/zp/deeplearning/spinningup_project/data/ddpg/ddpg_s0"
    },
    "max_ep_len":	1000,
    "num_test_episodes":	10,
    "p":	"Parameter containing:\ntensor([0.0366], device='cuda:0')",
    "pi_lr":	0.001,
    "q_lr":	0.001,
    "replay_size":	1000000,
    "self":	{
        "<spinup.alogos.ddpg.ddpg.ddpg object at 0x7f64d3574150>":	{
            "ac":	{
                "MLPActorCritic(\n  (pi): MLPActor(\n    (pi): Sequential(\n      (0): Linear(in_features=11, out_features=256, bias=True)\n      (1): ReLU()\n      (2): Linear(in_features=256, out_features=256, bias=True)\n      (3): ReLU()\n      (4): Linear(in_features=256, out_features=3, bias=True)\n      (5): Tanh()\n    )\n  )\n  (q): MLPQFunction(\n    (q): Sequential(\n      (0): Linear(in_features=14, out_features=256, bias=True)\n      (1): ReLU()\n      (2): Linear(in_features=256, out_features=256, bias=True)\n      (3): ReLU()\n      (4): Linear(in_features=256, out_features=1, bias=True)\n      (5): Identity()\n    )\n  )\n)":	{
                    "_backward_hooks":	{},
                    "_buffers":	{},
                    "_forward_hooks":	{},
                    "_forward_pre_hooks":	{},
                    "_is_full_backward_hook":	null,
                    "_load_state_dict_pre_hooks":	{},
                    "_modules":	{
                        "pi":	{
                            "MLPActor(\n  (pi): Sequential(\n    (0): Linear(in_features=11, out_features=256, bias=True)\n    (1): ReLU()\n    (2): Linear(in_features=256, out_features=256, bias=True)\n    (3): ReLU()\n    (4): Linear(in_features=256, out_features=3, bias=True)\n    (5): Tanh()\n  )\n)":	{
                                "_backward_hooks":	{},
                                "_buffers":	{},
                                "_forward_hooks":	{},
                                "_forward_pre_hooks":	{},
                                "_is_full_backward_hook":	null,
                                "_load_state_dict_pre_hooks":	{},
                                "_modules":	{
                                    "pi":	{
                                        "Sequential(\n  (0): Linear(in_features=11, out_features=256, bias=True)\n  (1): ReLU()\n  (2): Linear(in_features=256, out_features=256, bias=True)\n  (3): ReLU()\n  (4): Linear(in_features=256, out_features=3, bias=True)\n  (5): Tanh()\n)":	{
                                            "_backward_hooks":	{},
                                            "_buffers":	{},
                                            "_forward_hooks":	{},
                                            "_forward_pre_hooks":	{},
                                            "_is_full_backward_hook":	null,
…
                                            "training":	true
                                        }
                                    }
                                },
                                "_non_persistent_buffers_set":	"set()",
                                "_parameters":	{},
                                "_state_dict_hooks":	{},
                                "act_limit":	"1.0",
                                "training":	true
                            }
                        },
                        "q":	{
                            "MLPQFunction(\n  (q): Sequential(\n    (0): Linear(in_features=14, out_features=256, bias=True)\n    (1): ReLU()\n    (2): Linear(in_features=256, out_features=256, bias=True)\n    (3): ReLU()\n    (4): Linear(in_features=256, out_features=1, bias=True)\n    (5): Identity()\n  )\n)":	{
                                "_backward_hooks":	{},
                                "_buffers":	{},
                                "_forward_hooks":	{},
                                "_forward_pre_hooks":	{},
                                "_is_full_backward_hook":	null,
                                "_load_state_dict_pre_hooks":	{},
                                "_modules":	{
                                    "q":	{
                                        "Sequential(\n  (0): Linear(in_features=14, out_features=256, bias=True)\n  (1): ReLU()\n  (2): Linear(in_features=256, out_features=256, bias=True)\n  (3): ReLU()\n  (4): Linear(in_features=256, out_features=1, bias=True)\n  (5): Identity()\n)":	{
                                            "_backward_hooks":	{},
                                            "_buffers":	{},
                                            "_forward_hooks":	{},
                                            "_forward_pre_hooks":	{},
                                            "_is_full_backward_hook":	null,
…
