…
    "backtrack_coeff":	1.0,
    "backtrack_iter":	10,
    "delta":	0.01,
    "device":	"cuda:0",
    "env_fn":	"<function <lambda> at 0x7fc3115b4200>",
    "exp_name":	"trpo_hopper",
    "gamma":	0.99,
    "lam":	0.97,
    "logger_kwargs":	{
        "exp_name":	"trpo_hopper",
        "output_dir":	"/home/zp/deeplearning/spinningup_project/data/trpo_hopper/trpo_hopper_s0"
    },
    "mode":	"TRPO",
    "self":	{
        "<spinup.alogos.trpo.trpo.trpo object at 0x7fc310a87550>":	{
            "ac":	{
                "MLPActorCritic(\n  (pi): MLPGaussianActor(\n    (mu_net): Sequential(\n      (0): Linear(in_features=11, out_features=64, bias=True)\n      (1): Tanh()\n      (2): Linear(in_features=64, out_features=64, bias=True)\n      (3): Tanh()\n      (4): Linear(in_features=64, out_features=3, bias=True)\n      (5): Identity()\n    )\n  )\n  (v): MLPCritic(\n    (v_net): Sequential(\n      (0): Linear(in_features=11, out_features=64, bias=True)\n      (1): Tanh()\n      (2): Linear(in_features=64, out_features=64, bias=True)\n      (3): Tanh()\n      (4): Linear(in_features=64, out_features=1, bias=True)\n      (5): Identity()\n    )\n  )\n)":	{
                    "_backward_hooks":	{},
                    "_buffers":	{},
                    "_forward_hooks":	{},
                    "_forward_pre_hooks":	{},
                    "_is_full_backward_hook":	null,
                    "_load_state_dict_pre_hooks":	{},
                    "_modules":	{
                        "pi":	{
                            "MLPGaussianActor(\n  (mu_net): Sequential(\n    (0): Linear(in_features=11, out_features=64, bias=True)\n    (1): Tanh()\n    (2): Linear(in_features=64, out_features=64, bias=True)\n    (3): Tanh()\n    (4): Linear(in_features=64, out_features=3, bias=True)\n    (5): Identity()\n  )\n)":	{
                                "_backward_hooks":	{},
                                "_buffers":	{},
                                "_forward_hooks":	{},
                                "_forward_pre_hooks":	{},
                                "_is_full_backward_hook":	null,
                                "_load_state_dict_pre_hooks":	{},
                                "_modules":	{
                                    "mu_net":	{
                                        "Sequential(\n  (0): Linear(in_features=11, out_features=64, bias=True)\n  (1): Tanh()\n  (2): Linear(in_features=64, out_features=64, bias=True)\n  (3): Tanh()\n  (4): Linear(in_features=64, out_features=3, bias=True)\n  (5): Identity()\n)":	{
                                            "_backward_hooks":	{},
                                            "_buffers":	{},
                                            "_forward_hooks":	{},
                                            "_forward_pre_hooks":	{},
                                            "_is_full_backward_hook":	null,
…
                                },
                                "_non_persistent_buffers_set":	"set()",
                                "_parameters":	{
                                    "log_std":	"Parameter containing:\ntensor([-0.5000, -0.5000, -0.5000], device='cuda:0', requires_grad=True)"
                                },
                                "_state_dict_hooks":	{},
                                "training":	true
                            }
                        },
                        "v":	{
                            "MLPCritic(\n  (v_net): Sequential(\n    (0): Linear(in_features=11, out_features=64, bias=True)\n    (1): Tanh()\n    (2): Linear(in_features=64, out_features=64, bias=True)\n    (3): Tanh()\n    (4): Linear(in_features=64, out_features=1, bias=True)\n    (5): Identity()\n  )\n)":	{
                                "_backward_hooks":	{},
                                "_buffers":	{},
                                "_forward_hooks":	{},
                                "_forward_pre_hooks":	{},
                                "_is_full_backward_hook":	null,
                                "_load_state_dict_pre_hooks":	{},
                                "_modules":	{
                                    "v_net":	{
                                        "Sequential(\n  (0): Linear(in_features=11, out_features=64, bias=True)\n  (1): Tanh()\n  (2): Linear(in_features=64, out_features=64, bias=True)\n  (3): Tanh()\n  (4): Linear(in_features=64, out_features=1, bias=True)\n  (5): Identity()\n)":	{
                                            "_backward_hooks":	{},
                                            "_buffers":	{},
                                            "_forward_hooks":	{},
                                            "_forward_pre_hooks":	{},
                                            "_is_full_backward_hook":	null,
…
                    "output_dir":	"/home/zp/deeplearning/spinningup_project/data/trpo_hopper/trpo_hopper_s0",
                    "output_file":	{
                        "<_io.TextIOWrapper name='/home/zp/deeplearning/spinningup_project/data/trpo_hopper/trpo_hopper_s0/progress.txt' mode='w' encoding='UTF-8'>":	{
                            "mode":	"w"
                        }
                    }
                }
            },
            "mode":	"TRPO",
            "obs_dim":	[
                11
            ],
            "old_pi":	{
                "MLPGaussianActor(\n  (mu_net): Sequential(\n    (0): Linear(in_features=11, out_features=64, bias=True)\n    (1): Tanh()\n    (2): Linear(in_features=64, out_features=64, bias=True)\n    (3): Tanh()\n    (4): Linear(in_features=64, out_features=3, bias=True)\n    (5): Identity()\n  )\n)":	{
                    "_backward_hooks":	{},
                    "_buffers":	{},
                    "_forward_hooks":	{},
                    "_forward_pre_hooks":	{},
                    "_is_full_backward_hook":	null,
                    "_load_state_dict_pre_hooks":	{},
                    "_modules":	{
                        "mu_net":	{
                            "Sequential(\n  (0): Linear(in_features=11, out_features=64, bias=True)\n  (1): Tanh()\n  (2): Linear(in_features=64, out_features=64, bias=True)\n  (3): Tanh()\n  (4): Linear(in_features=64, out_features=3, bias=True)\n  (5): Identity()\n)":	{
                                "_backward_hooks":	{},
                                "_buffers":	{},
                                "_forward_hooks":	{},
                                "_forward_pre_hooks":	{},
                                "_is_full_backward_hook":	null,
                                "_load_state_dict_pre_hooks":	{},
…
