…
    "backtrack_coeff":	1.0,
    "backtrack_iter":	10,
    "delta":	0.01,
    "device":	"cuda:0",
    "env_fn":	"<function <lambda> at 0x7fee45d53200>",
    "exp_name":	"trpo_cartpole",
    "gamma":	0.99,
    "lam":	0.97,
    "logger_kwargs":	{
        "exp_name":	"trpo_cartpole",
        "output_dir":	"/home/zp/deeplearning/spinningup_project/data/trpo_cartpole/trpo_cartpole_s0"
    },
    "mode":	"TRPO",
    "self":	{
        "<spinup.alogos.trpo.trpo.trpo object at 0x7fee45225410>":	{
            "ac":	{
                "MLPActorCritic(\n  (pi): MLPCategoricalActor(\n    (logits_net): Sequential(\n      (0): Linear(in_features=4, out_features=64, bias=True)\n      (1): Tanh()\n      (2): Linear(in_features=64, out_features=64, bias=True)\n      (3): Tanh()\n      (4): Linear(in_features=64, out_features=2, bias=True)\n      (5): Identity()\n    )\n  )\n  (v): MLPCritic(\n    (v_net): Sequential(\n      (0): Linear(in_features=4, out_features=64, bias=True)\n      (1): Tanh()\n      (2): Linear(in_features=64, out_features=64, bias=True)\n      (3): Tanh()\n      (4): Linear(in_features=64, out_features=1, bias=True)\n      (5): Identity()\n    )\n  )\n)":	{
                    "_backward_hooks":	{},
                    "_buffers":	{},
                    "_forward_hooks":	{},
                    "_forward_pre_hooks":	{},
                    "_is_full_backward_hook":	null,
                    "_load_state_dict_pre_hooks":	{},
                    "_modules":	{
                        "pi":	{
                            "MLPCategoricalActor(\n  (logits_net): Sequential(\n    (0): Linear(in_features=4, out_features=64, bias=True)\n    (1): Tanh()\n    (2): Linear(in_features=64, out_features=64, bias=True)\n    (3): Tanh()\n    (4): Linear(in_features=64, out_features=2, bias=True)\n    (5): Identity()\n  )\n)":	{
                                "_backward_hooks":	{},
                                "_buffers":	{},
                                "_forward_hooks":	{},
                                "_forward_pre_hooks":	{},
                                "_is_full_backward_hook":	null,
                                "_load_state_dict_pre_hooks":	{},
                                "_modules":	{
                                    "logits_net":	{
                                        "Sequential(\n  (0): Linear(in_features=4, out_features=64, bias=True)\n  (1): Tanh()\n  (2): Linear(in_features=64, out_features=64, bias=True)\n  (3): Tanh()\n  (4): Linear(in_features=64, out_features=2, bias=True)\n  (5): Identity()\n)":	{
                                            "_backward_hooks":	{},
                                            "_buffers":	{},
                                            "_forward_hooks":	{},
                                            "_forward_pre_hooks":	{},
                                            "_is_full_backward_hook":	null,
…
                                            "_state_dict_hooks":	{},
                                            "training":	true
                                        }
                                    }
                                },
                                "_non_persistent_buffers_set":	"set()",
                                "_parameters":	{},
                                "_state_dict_hooks":	{},
                                "training":	true
                            }
                        },
                        "v":	{
                            "MLPCritic(\n  (v_net): Sequential(\n    (0): Linear(in_features=4, out_features=64, bias=True)\n    (1): Tanh()\n    (2): Linear(in_features=64, out_features=64, bias=True)\n    (3): Tanh()\n    (4): Linear(in_features=64, out_features=1, bias=True)\n    (5): Identity()\n  )\n)":	{
                                "_backward_hooks":	{},
                                "_buffers":	{},
                                "_forward_hooks":	{},
                                "_forward_pre_hooks":	{},
                                "_is_full_backward_hook":	null,
                                "_load_state_dict_pre_hooks":	{},
                                "_modules":	{
                                    "v_net":	{
                                        "Sequential(\n  (0): Linear(in_features=4, out_features=64, bias=True)\n  (1): Tanh()\n  (2): Linear(in_features=64, out_features=64, bias=True)\n  (3): Tanh()\n  (4): Linear(in_features=64, out_features=1, bias=True)\n  (5): Identity()\n)":	{
                                            "_backward_hooks":	{},
                                            "_buffers":	{},
                                            "_forward_hooks":	{},
                                            "_forward_pre_hooks":	{},
                                            "_is_full_backward_hook":	null,
…
                    "output_dir":	"/home/zp/deeplearning/spinningup_project/data/trpo_cartpole/trpo_cartpole_s0",
                    "output_file":	{
                        "<_io.TextIOWrapper name='/home/zp/deeplearning/spinningup_project/data/trpo_cartpole/trpo_cartpole_s0/progress.txt' mode='w' encoding='UTF-8'>":	{
                            "mode":	"w"
                        }
                    }
                }
            },
            "mode":	"TRPO",
            "obs_dim":	[
                4
            ],
            "old_pi":	{
                "MLPCategoricalActor(\n  (logits_net): Sequential(\n    (0): Linear(in_features=4, out_features=64, bias=True)\n    (1): Tanh()\n    (2): Linear(in_features=64, out_features=64, bias=True)\n    (3): Tanh()\n    (4): Linear(in_features=64, out_features=2, bias=True)\n    (5): Identity()\n  )\n)":	{
                    "_backward_hooks":	{},
                    "_buffers":	{},
                    "_forward_hooks":	{},
                    "_forward_pre_hooks":	{},
                    "_is_full_backward_hook":	null,
                    "_load_state_dict_pre_hooks":	{},
                    "_modules":	{
                        "logits_net":	{
                            "Sequential(\n  (0): Linear(in_features=4, out_features=64, bias=True)\n  (1): Tanh()\n  (2): Linear(in_features=64, out_features=64, bias=True)\n  (3): Tanh()\n  (4): Linear(in_features=64, out_features=2, bias=True)\n  (5): Identity()\n)":	{
                                "_backward_hooks":	{},
                                "_buffers":	{},
                                "_forward_hooks":	{},
                                "_forward_pre_hooks":	{},
                                "_is_full_backward_hook":	null,
                                "_load_state_dict_pre_hooks":	{},
…
