…
    },
    "exp_name":	"ddpg_her",
    "gamma":	0.98,
    "logger_kwargs":	{
        "exp_name":	"ddpg_her",
        "output_dir":	"/home/zp/deeplearning/spinningup_project/data/ddpg_her/ddpg_her_s0"
    },
    "p":	"Parameter containing:\ntensor([-0.0608], device='cuda:0')",
    "pi_lr":	0.001,
    "q_lr":	0.001,
    "replay_k":	4,
    "replay_size":	1000000,
    "replay_stage":	"future",
    "self":	{
        "<spinup.alogos.ddpg_her.ddpg_goal.ddpg_goal_her object at 0x7f9ce67bb390>":	{
            "ac":	{
                "MLPActorCritic(\n  (pi): multi_in_actor(\n    (pi): Sequential(\n      (0): Linear(in_features=28, out_features=256, bias=True)\n      (1): ReLU()\n      (2): Linear(in_features=256, out_features=256, bias=True)\n      (3): ReLU()\n      (4): Linear(in_features=256, out_features=4, bias=True)\n      (5): Tanh()\n    )\n  )\n  (q): multi_in_critic(\n    (q): Sequential(\n      (0): Linear(in_features=32, out_features=256, bias=True)\n      (1): ReLU()\n      (2): Linear(in_features=256, out_features=256, bias=True)\n      (3): ReLU()\n      (4): Linear(in_features=256, out_features=1, bias=True)\n      (5): Identity()\n    )\n  )\n)":	{
                    "_backward_hooks":	{},
                    "_buffers":	{},
                    "_forward_hooks":	{},
                    "_forward_pre_hooks":	{},
                    "_is_full_backward_hook":	null,
                    "_load_state_dict_pre_hooks":	{},
                    "_modules":	{
                        "pi":	{
                            "multi_in_actor(\n  (pi): Sequential(\n    (0): Linear(in_features=28, out_features=256, bias=True)\n    (1): ReLU()\n    (2): Linear(in_features=256, out_features=256, bias=True)\n    (3): ReLU()\n    (4): Linear(in_features=256, out_features=4, bias=True)\n    (5): Tanh()\n  )\n)":	{
                                "_backward_hooks":	{},
                                "_buffers":	{},
                                "_forward_hooks":	{},
                                "_forward_pre_hooks":	{},
                                "_is_full_backward_hook":	null,
                                "_load_state_dict_pre_hooks":	{},
                                "_modules":	{
                                    "pi":	{
                                        "Sequential(\n  (0): Linear(in_features=28, out_features=256, bias=True)\n  (1): ReLU()\n  (2): Linear(in_features=256, out_features=256, bias=True)\n  (3): ReLU()\n  (4): Linear(in_features=256, out_features=4, bias=True)\n  (5): Tanh()\n)":	{
                                            "_backward_hooks":	{},
                                            "_buffers":	{},
                                            "_forward_hooks":	{},
                                            "_forward_pre_hooks":	{},
                                            "_is_full_backward_hook":	null,
…
                                            "training":	true
                                        }
                                    }
                                },
                                "_non_persistent_buffers_set":	"set()",
                                "_parameters":	{},
                                "_state_dict_hooks":	{},
                                "action_limit":	"1.0",
                                "training":	true
                            }
                        },
                        "q":	{
                            "multi_in_critic(\n  (q): Sequential(\n    (0): Linear(in_features=32, out_features=256, bias=True)\n    (1): ReLU()\n    (2): Linear(in_features=256, out_features=256, bias=True)\n    (3): ReLU()\n    (4): Linear(in_features=256, out_features=1, bias=True)\n    (5): Identity()\n  )\n)":	{
                                "_backward_hooks":	{},
                                "_buffers":	{},
                                "_forward_hooks":	{},
                                "_forward_pre_hooks":	{},
                                "_is_full_backward_hook":	null,
                                "_load_state_dict_pre_hooks":	{},
                                "_modules":	{
                                    "q":	{
                                        "Sequential(\n  (0): Linear(in_features=32, out_features=256, bias=True)\n  (1): ReLU()\n  (2): Linear(in_features=256, out_features=256, bias=True)\n  (3): ReLU()\n  (4): Linear(in_features=256, out_features=1, bias=True)\n  (5): Identity()\n)":	{
                                            "_backward_hooks":	{},
                                            "_buffers":	{},
                                            "_forward_hooks":	{},
                                            "_forward_pre_hooks":	{},
                                            "_is_full_backward_hook":	null,
…
